models/weights.pth (torch_old, 2574 bytes, 8 tensors)

0.weight f4 [16, 7]
000000 35 cd 00 3f 3d 11 64 3e 32 ff 61 3d 98 40 6e 3f
       0.5031312 0.22272201 0.055175014 0.9306731
000010 81 30 a0 3e 0f e4 d9 3e 06 20 47 be f6 45 e1 3d
       0.31287006 0.42556807 -0.1944581 0.10999672
000020 0d 16 b0 be 81 96 8d be 27 56 ad 3d 32 c1 47 bf
       -0.34391823 -0.27653888 0.08463698 -0.7802917
000030 d1 2d 96 be 57 0f 55 3f ce c2 d8 be 4a e1 15 3f
       -0.2933183 0.8322653 -0.42336124 0.5854689
000040 30 ed a1 3e 9d 55 c5 be bc 08 a7 3e f1 bd 27 3d
       0.31626272 -0.3854188 0.3262385 0.040952627
000050 85 4f 81 be 40 2c 6c bf 50 46 d7 3e 4a 20 d6 be
       -0.2525598 -0.9225502 0.42045832 -0.4182151
000060 98 2a 66 be 27 57 d8 3e 12 43 61 be e0 d6 b3 3e
       -0.22477186 0.42253992 -0.21998242 0.35124874
000070 a1 7c 48 be 37 cb 15 be 5c 95 51 be 93 fc 52 3d
       -0.19578792 -0.14628302 -0.20467132 0.051510405
000080 58 be 47 3e 8f bd c0 3d af d5 86 3e e3 26 49 bf
       0.19506204 0.094111554 0.26334903 -0.7857496
000090 52 ce 2f bd 84 ad 29 39 18 26 bc bd ab 07 66 be
       -0.04292137 0.00016181736 -0.09186953 -0.22463863
0000a0 92 f3 89 3e 0b 0b fd 3d 6b cd 00 be 17 0f 0e be
       0.26943642 0.12355622 -0.1257836 -0.13872944
0000b0 8e 8c 45 bc 2c 08 17 be 73 97 27 be f8 8b b3 3e
       -0.012057437 -0.14749211 -0.16366367 0.35067725
0000c0 7c fd ba be d2 0d 0a be 9d c3 bd bd 10 dc 87 be
       -0.36521518 -0.13481835 -0.09265826 -0.26535082
0000d0 92 b5 55 3e 0f d4 60 be 78 68 15 3e 3d 50 07 bd
       0.20870045 -0.21955894 0.14590633 -0.033035506
0000e0 be c8 65 3e e7 1a 21 3f c0 cd 96 3e 3c 48 3b 3b
       0.22439858 0.62931675 0.2945385 0.002857699
0000f0 15 7b 0d be 96 2b 40 bf 2e 07 07 bf ad f9 2a bf
       -0.13816483 -0.75066507 -0.5274533 -0.66787225
000100 f3 13 54 3e 42 68 31 be af d8 ee 3e e1 69 69 be
       0.20710735 -0.17324927 0.4664969 -0.22794296
000110 d7 ad 4c bf f5 4e a6 be 83 bb 03 bf f5 39 60 3e
       -0.7995276 -0.32482114 -0.51457995 0.21897109
000120 8e 67 de 3e f7 3a 98 bf db 40 31 bf 72 e9 36 be
       0.4343838 -1.1892995 -0.69239587 -0.1786249
000130 81 2b da be b9 cd 1f bf 4f 08 94 bd f7 b0 93 be
       -0.42611316 -0.6242328 -0.07228147 -0.2884595
000140 e2 cc 49 be 17 dd 05 be 23 93 49 3e 64 a0 88 bf
       -0.19707063 -0.1307262 0.19685034 -1.0673947
000150 1a c1 82 3e cb e3 6f 3e 04 ae 35 bc f8 57 7e be
       0.2553795 0.2342674 -0.011088852 -0.24838245
000160 b3 02 1b 3f 20 49 c7 bc 95 2b be 3e 1e cb 42 be
       0.60550994 -0.02432686 0.37142625 -0.19022796
000170 00 2a f6 3d ea b1 2f bd 4d fd 3e be 88 b2 d3 3d
       0.120197296 -0.04289428 -0.18651314 0.103367865
000180 d4 8a ca bd ef 30 55 3e 5e 7d 5f bf 58 d9 9a bd
       -0.098897606 0.20819448 -0.8730067 -0.07560986
000190 d6 78 bf 3e 47 95 5c bf 20 b4 14 bf fd 32 81 be
       0.37396878 -0.8616528 -0.5808735 -0.25234213
0001a0 1e 9c ca be 52 8d 00 3e bd 53 79 be 4c 9e d5 3e
       -0.39572233 0.1255391 -0.2434835 0.41722333
0001b0 39 6a 5d 3e 96 cc 93 be 9d e8 19 bf 55 99 21 bf
       0.21622552 -0.28867024 -0.60120565 -0.6312459

0.bias f4 [16]
000000 5e 86 d2 be cd 38 8b 3e a5 1c c2 be ef da 10 3d
       -0.4111814 0.27191773 -0.3791248 0.03536504
000010 d7 fb 7c be 96 bd e3 3e 3b 4b 0a 3f 14 88 8c be
       -0.24705444 0.4448058 0.5402104 -0.2744757
000020 0a 12 a2 3d e2 3f f4 3e 64 70 b4 3e 4d 99 f9 3e
       0.07913597 0.4770499 0.35241997 0.48749772
000030 ae ee a8 be f6 eb 86 be 4f 9b a9 3e 5c f0 d9 3e
       -0.32994598 -0.263519 0.33126304 0.42566192

2.weight f4 [8, 16]
000000 5a 90 a7 3e e4 23 da bf 14 0e 2b 3e 72 f8 ab 3e
       0.3272732 -1.7042203 0.16704589 0.33587986
000010 b4 e3 43 3d 69 d6 d3 be ca c8 a3 bd ec ae 18 3e
       0.047824576 -0.4137452 -0.07997282 0.14910477
000020 2b fb b0 3d 95 59 58 3e de e8 9e 3f 76 64 f1 3e
       0.086416565 0.21127923 1.2414815 0.47146958
000030 56 45 98 3e 03 72 1b be 0d 19 bd bf 63 7c 61 bf
       0.297404 -0.15180211 -1.477327 -0.88080424
000040 f6 0c 45 3c c8 07 fc bd ba 66 6f 3d f0 d4 30 be
       0.012027016 -0.12306172 0.058447577 -0.17268729
000050 f4 77 ae bd 9b 51 17 be ca 08 0c 3e 52 f1 9d 3d
       -0.08518973 -0.14777224 0.13675228 0.07712044
000060 ea f3 19 be 28 09 94 bc 8d fb a7 bc 5f 21 b6 3d
       -0.15034452 -0.018070772 -0.020505691 0.08893084
000070 66 ff d8 3c 6d 58 80 3c 9f 81 f1 3d c8 5b d9 bd
       0.026488971 0.015667165 0.117923014 -0.10613209
000080 08 70 5e be ff 7b 00 40 25 bf 10 3f 2e fe e9 bc
       -0.21722424 2.0075681 0.56541663 -0.028563585
000090 92 d5 ce 3c d5 87 75 be 33 e1 b1 3e 97 f9 3d bd
       0.025248323 -0.23977597 0.34742126 -0.046380606
0000a0 2a 6a 89 bf 7a b2 83 3f 3e e1 14 c0 60 3d bd bf
       -1.0735524 1.0288842 -2.3262477 -1.4784355
0000b0 0f 4a 60 3e dd 6d eb 3d 2b c6 f0 bf 77 41 46 bf
       0.21903251 0.11495564 -1.8810476 -0.7744364
0000c0 04 1a 44 be a5 fe b1 3d d6 55 6d bd b4 64 c1 3d
       -0.19150549 0.08691148 -0.057943188 0.09443036
0000d0 be 47 ad bd ee 62 13 be 4c 14 37 be 4c f6 08 3d
       -0.08460949 -0.14393207 -0.17878836 0.033438012
0000e0 ab 89 b8 bd 63 53 49 bb 96 d1 d8 3d 24 d0 5d 3b
       -0.09010633 -0.0030719868 0.1058685 0.0033845985
0000f0 81 45 2b 3d 2a 27 31 bd 92 4a eb bd 90 16 37 3d
       0.04181433 -0.04325024 -0.114888325 0.04469925
000100 5c f1 b5 be 1b ee 9d bd 34 45 b6 bf ab 0a 2d bf
       -0.35535705 -0.07711431 -1.4239869 -0.67594403
000110 ad b5 38 bd 49 e0 e9 3d c5 69 9e be 6e 5b 15 3e
       -0.045095135 0.11419732 -0.3094007 0.14585659
000120 56 15 ef bd 07 aa 33 3f 9c ed 23 be 24 f4 f3 3e
       -0.116739914 0.70181316 -0.1600861 0.47647202
000130 54 83 b1 3e 2e e5 52 3d 6c cd 31 40 9d e6 68 3d
       0.34670508 0.051488094 2.778163 0.056860555
000140 bd 2a 9c 3e 72 cd df bf 2e 5f 6d 3e 17 45 8c 3e
       0.30501357 -1.7484572 0.2318084 0.2739646
000150 0e 3f 75 bd 05 14 dc be d1 7b 51 be 07 4c bb 3d
       -0.059874587 -0.42984024 -0.20457388 0.091453604
000160 b5 59 9c 3e e5 e7 6c 3e 5e fe 75 3f 62 b1 78 3f
       0.3053719 0.23135336 0.9609126 0.97145665
000170 a3 1d 9d 3e bd cb 8b 3d 32 ec b5 bf 08 36 80 bf
       0.30686674 0.06825969 -1.4212706 -1.0016489
000180 10 5d 1c bf a0 e4 b8 bf 6c 64 98 be b4 1a 93 bf
       -0.610795 -1.4444771 -0.29764116 -1.1492524
000190 96 30 34 3d b9 39 ea bd 4a 9d 39 3e 7c 9a 9b bb
       0.043991648 -0.11436791 0.18126407 -0.0047486406
0001a0 3b 3d 1f be c0 1e 2a 3f d4 b7 02 3f e9 fc 47 3f
       -0.15550701 0.6645317 0.5106175 0.78120285
0001b0 42 39 49 be 51 31 0c 3d 89 56 7d 3f 3a 74 e1 3e
       -0.19650748 0.03422672 0.9896017 0.44033986
0001c0 79 28 19 bf 5b 42 a1 bf 08 e5 4f bf d1 2e 98 bf
       -0.5982738 -1.2598375 -0.8120885 -1.1889287
0001d0 49 2f 11 be 44 40 8d 3e 02 31 18 3e 8a b0 b9 3d
       -0.14178194 0.27588093 0.14862445 0.09066875
0001e0 53 6a 77 3e 36 58 c0 3e 0c 1d 3b be 3b 78 4f 3f
       0.24161653 0.375673 -0.18272799 0.8104283
0001f0 28 9f a7 be c1 6f 0a be 79 f0 d0 3f 59 ba 93 3c
       -0.32738614 -0.13519193 1.6323386 0.018033193

2.bias f4 [8]
000000 c0 fa 02 be d9 56 c0 bd 1e 20 96 3d bb 0e 33 be
       -0.12790966 -0.09391565 0.073303446 -0.17486088
000010 58 4e d2 3d 10 73 33 be d1 3a 22 3e 47 ef fd 3d
       0.10268849 -0.17524362 0.15842749 0.12399154

5.weight f4 [4, 8]
000000 99 f6 dc bf d8 bd dd bd 6d ed c8 3f 20 6d 6b 3d
       -1.7262756 -0.108272254 1.5697457 0.057477117
000010 97 ff 22 40 ec b9 fa bf 58 ef ae 3e 82 dd 31 3f
       2.54685 -1.9587989 0.3416698 0.6947862
000020 c3 47 70 be af b1 5b be d0 9b 16 3d c2 50 d0 3d
       -0.23464875 -0.214545 0.036769688 0.10171653
000030 90 39 ae bd 5e 13 b6 3d 4e 2f b3 3c 17 2a 84 be
       -0.08507073 0.08890413 0.021873143 -0.25813362
000040 94 17 c5 bf 49 8f da 3d 1a d5 d9 3f 91 ac f4 3d
       -1.539782 0.10671861 1.7018158 0.11946977
000050 a3 26 21 40 90 55 e9 bf 74 26 c3 3e ba 01 2e 3f
       2.5179832 -1.8229237 0.38115275 0.67971385
000060 ca dc a3 3f 4a 8b c0 3d 1d cf 45 c0 db 80 13 3d
       1.2801754 0.09401567 -3.0907662 0.036011558
000070 18 81 ec bf f1 9a af 3f ec 27 2d c0 a7 cc 2e c0
       -1.8476896 1.3719159 -2.7055616 -2.731241

5.bias f4 [4]
000000 ab 4b c0 3d 34 69 79 be 51 4a c5 3d 2d 9c ed 3d
       0.093894325 -0.24356538 0.09633315 0.11602054

8.weight f4 [2, 4]
000000 eb 69 b0 3f f0 61 56 be 70 2c d4 3f 82 7f fd bf
       1.3782324 -0.20935798 1.6576061 -1.9804537
000010 c5 da d0 bf b8 cb 2f 3e f9 63 a2 bf 1c 8d e8 3f
       -1.6316763 0.17167556 -1.2686759 1.8168063

8.bias f4 [2]
000000 3f 00 53 3d 88 c3 f6 3c
       0.051513907 0.030122533
